…
              precision    recall  f1-score   support

       uncon       0.85      0.70      0.77      1014
         con       0.84      0.93      0.88      1689

   micro avg       0.84      0.84      0.84      2703
   macro avg       0.84      0.81      0.82      2703
weighted avg       0.84      0.84      0.84      2703
 samples avg       0.84      0.84      0.84      2703

Model: "sequential"
_________________________________________________________________
Layer (type)                 Output Shape              Param #   
=================================================================
bidirectional (Bidirectional (None, 300)               234900    
_________________________________________________________________
batch_normalization (BatchNo (None, 300)               1200      
_________________________________________________________________
dropout (Dropout)            (None, 300)               0         
_________________________________________________________________
dense (Dense)                (None, 150)               45150     
_________________________________________________________________
batch_normalization_1 (Batch (None, 150)               600       
_________________________________________________________________
dropout_1 (Dropout)          (None, 150)               0         
_________________________________________________________________
dense_1 (Dense)              (None, 2)                 302       
=================================================================
Total params: 282,152
Trainable params: 281,252
Non-trainable params: 900
_________________________________________________________________
None
>#1: 83.574
Run 1's time: 2871.9214086532593
[83.57380628585815]
Accuracy: 83.574% (+/-0.000)
Total running time: 2872.8245096206665
