…
              precision    recall  f1-score   support

       uncon       0.79      0.71      0.74      1014
         con       0.83      0.88      0.86      1689

   micro avg       0.82      0.82      0.82      2703
   macro avg       0.81      0.80      0.80      2703
weighted avg       0.82      0.82      0.82      2703
 samples avg       0.82      0.82      0.82      2703

Model: "sequential"
_________________________________________________________________
Layer (type)                 Output Shape              Param #   
=================================================================
bidirectional (Bidirectional (None, 300)               312000    
_________________________________________________________________
batch_normalization (BatchNo (None, 300)               1200      
_________________________________________________________________
dropout (Dropout)            (None, 300)               0         
_________________________________________________________________
dense (Dense)                (None, 150)               45150     
_________________________________________________________________
batch_normalization_1 (Batch (None, 150)               600       
_________________________________________________________________
dropout_1 (Dropout)          (None, 150)               0         
_________________________________________________________________
dense_1 (Dense)              (None, 2)                 302       
=================================================================
Total params: 359,252
Trainable params: 358,352
Non-trainable params: 900
_________________________________________________________________
None
>#1: 81.835
Run 1's time: 2388.1516115665436
[81.83499574661255]
Accuracy: 81.835% (+/-0.000)
Total running time: 2389.010039329529
